projects/reinforcement_learning/deep_q_learning/tictactoe/trained_models/player_2_dqn.pth (torch, 24657 bytes, 6 tensors)

net.1.weight f4 [64, 9]
1.0329689 1.6207536 1.8409905 1.5066404 -1.831399 0.05524052 0.9290688 1.8759404
1.8105987 1.7945354 3.0746436 1.4429275 -1.1631125 -0.3537433 -0.24437305 0.69731504
2.2846093 0.039778613 0.419417 0.89786786 1.7826183 1.3135608 -2.252589 1.3066622
0.40395433 1.6910701 1.5508766 0.8573178 1.6869262 0.63779885 1.1380501 0.5908253
1.9334586 0.8060148 0.95691496 -1.5934778 1.1619759 2.8789148 -0.02881037 0.16221477
-2.2444677 0.47012448 1.4524342 2.628767 3.0507925 -0.3202592 0.6450912 -0.78424376
-0.3209527 6.3765497 -0.5075992 0.14574775 0.75433856 0.9516232 -1.2844625 -0.4677085
1.5067347 0.025092898 -0.72712636 -0.9272254 -0.3899599 4.664989 -0.91272753 2.654085
0.6631412 1.8598673 0.606702 -3.5781083 1.8787749 0.55839056 1.8515507 1.4327031
-1.5352471 -1.3753449 1.1256707 -3.3858738 -0.25379583 -0.72803926 1.0169079 4.3931184
0.30470186 -1.7443186 -1.6046987 -1.1209362 1.8385726 0.39416876 -0.53098416 1.3471369
-2.8667645 1.1037161 4.438242 -2.1032813 0.5150073 -1.1756544 0.5123866 -2.0991015
0.6567073 -2.3675663 0.5976103 -0.21568738 2.3186579 1.6505715 0.8249124 -3.0457187
-0.75547165 2.6982894 2.4712474 3.2653418 -0.6290544 0.10884325 0.73935825 -7.81193
0.5140477 -0.8150068 1.2148294 0.63233894 0.59309787 2.971758 1.0521511 0.024882346
0.07998622 -1.5207336 0.8519077 1.5847799 1.136183 1.2852232 -2.8680108 0.66787946
-3.5355065 0.82470053 0.2880214 -0.5234817 0.5936831 3.0247602 -0.41864854 1.5759686
1.6423037 0.9071372 0.43777892 -0.0699697 1.0257399 0.37799397 1.8066486 -0.07547161
-1.4371212 2.0434191 1.9076546 0.089622796 -3.9760222 2.0136247 2.916565 -1.5261626
2.8730428 -0.5505809 -0.30272457 -1.0249895 4.5134487 -0.06022553 -1.4828544 0.36437368
-3.5360136 0.38193452 2.9512107 0.20813064 -4.5221057 0.58488566 -0.9563167 -0.14272821
0.5841982 -1.407796 -0.09637271 -0.20460382 1.8850484 0.7749191 1.3879509 -2.3870819
-0.044590253 2.3470078 3.316218 2.3008077 0.6327075 0.46919003 1.5839893 1.3082676
-2.4995313 0.64768976 1.5621272 2.3600202 1.2186134 -0.14374201 2.0464716 2.072868
-1.0436987 -0.67836356 0.005346908 1.5284462 2.3392472 3.4710267 0.9254335 0.27582622
0.5428375 -0.49536264 0.11765508 -1.0183188 0.5915073 2.1485844 -5.6133265 -0.46160758
0.23144734 1.6654093 0.8300916 0.09102626 0.67714024 -6.3206325 0.72943944 0.7899651
0.018855844 1.582249 2.82951 1.2450992 -2.2255828 0.8677283 1.3421555 0.016247759
2.1748383 0.6663758 0.84527814 0.9271515 0.17916073 -1.2564961 0.6647154 1.9103696
2.5781245 2.2452679 0.3474325 0.7220513 1.5031737 0.89473224 0.47036085 0.65673524
-5.570857 0.53412664 0.71400005 -0.49174994 0.13971925 3.2324731 0.73799723 -0.23257187
-0.23612957 0.05013636 -4.7696743 -0.10763498 0.12877963 0.585596 -5.5045557 -0.33097544
00000000: 5338 843f db74 cf3f 94a5 eb3f 98d9 c03f
00000010: 486b eabf e243 623d 74d7 6d3f d11e f03f
00000020: b3c1 e73f 56b3 e53f f6c6 4440 d9b1 b83f
00000030: dfe0 94bf d81d b5be ee3c 7abe 3d83 323f
00000040: 0a37 1240 e6ee 223d d3bd d63e abda 653f
00000050: d62c e43f c322 a83f 6b2a 10c0 b540 a73f
00000060: 1ad3 ce3e fc74 d83f 2083 c63f 2e79 5b3f
00000070: 33ed d73f c946 233f a0ab 913f 5440 173f
00000080: 927b f73f fc56 4e3f 61f8 743f 15f7 cbbf
00000090: a0bb 943f 2440 3840 ba03 ecbc a11b 263e
000000a0: 5ca5 0fc0 28b4 f03e 5de9 b93f b83d 2840
000000b0: 2f40 4340 04f9 a3be b224 253f 33c4 48bf
000000c0: ea53 a4be b20c cc40 05f2 01bf e63e 153e
000000d0: 551c 413f 949d 733f 4469 a4bf 7d77 efbe
000000e0: afdc c03f 9f8f cd3c f424 3abf a55e 6dbf
000000f0: d3a8 c7be 9747 9540 83a8 69bf 87dc 2940
00000100: 9fc3 293f 2210 ee3f d350 1b3f baff 64c0
00000110: b27b f03f aff2 0e3f 9dff ec3f d162 b73f
00000120: fa82 c4bf 4d0b b0bf fa15 903f 28b2 58c0
00000130: 87f1 81be c860 3abf 0a2a 823f 6d94 8c40
00000140: e201 9c3e d545 dfbf c466 cdbf d67a 8fbf
00000150: 5956 eb3f 7dd0 c93e 94ee 07bf fb6e ac3f
00000160: 1279 37c0 9246 8d3f 1406 8e40 299c 06c0
00000170: 85d7 033f d87b 96bf c52b 033f ae57 06c0
00000180: f81d 283f 3586 17c0 fdfc 183f 27dd 5cbe
00000190: e464 1440 ed45 d33f 762d 533f 0eed 42c0
000001a0: 9766 41bf c6b0 2c40 eb28 1e40 5cfb 5040
000001b0: b609 21bf 36e9 de3d 9546 3d3f 55fb f9c0
000001c0: a198 033f 49a4 50bf 887f 9b3f f7e0 213f
000001d0: 43d5 173f 4831 3e40 e3ac 863f 10d6 cb3c
000001e0: d1cf a33d 66a7 c2bf 9f16 5a3f 11da ca3f
000001f0: 726e 913f 3282 a43f 7d8d 37c0 26fa 2a3f
00000200: bd45 62c0 931f 533f 8a77 933e e602 06bf
00000210: 9efb 173f ac95 4140 1a59 d6be 57b9 c93f
00000220: 0237 d23f 253a 683f 8f24 e03e 464c 8fbd
00000230: 724b 833f 6d88 c13e 4340 e73f dc90 9abd
00000240: 96f3 b7bf 61c7 0240 072e f43f 288c b73d
00000250: 2677 7ec0 3adf 0040 00a9 3a40 4c59 c3bf
00000260: efdf 3740 dff2 0cbf b7fe 9abe db32 83bf
00000270: 2c6e 9040 0caf 76bd 2cce bdbf 308f ba3e
00000280: 0c4e 62c0 ec8c c33e a3e0 3c40 3320 553e
00000290: 17b5 90c0 11bb 153f 2cd1 74bf 5827 12be
000002a0: 038e 153f a932 b4bf 0e5f c5bd aa83 51be
000002b0: 4449 f13f 1961 463f 60a8 b13f f3c5 18c0
000002c0: 45a4 36bd 6035 1640 ea3c 5440 6f40 1340
000002d0: 1ef9 213f ad39 f03e 29c0 ca3f 5075 a73f
000002e0: 52f8 1fc0 ffce 253f c9f3 c73f 920a 1740
000002f0: 86fb 9b3f 1b31 13be 64f9 0240 dfa9 0440
00000300: eb97 85bf 3ca9 2dbf 1d35 af3b 20a4 c33f
00000310: 3ab6 1540 4d25 5e40 36e9 6c3f 1839 8d3e
00000320: 66f7 0a3f 2ca0 fdbe 26f5 f03d 4558 82bf
00000330: 066d 173f 6882 0940 5fa0 b3c0 d457 ecbe
00000340: 8800 6d3e 222c d53f e280 543f fa6b ba3d
00000350: 1059 2d3f 9f42 cac0 8bbc 3a3f 273b 4a3f
00000360: 9277 9a3c 2387 ca3f b116 3540 695f 9f3f
00000370: f36f 0ec0 7123 5e3f c0cb ab3f 051a 853c
00000380: 8d30 0b40 9b97 2a3f 2664 583f cd59 6d3f
00000390: e975 373e ddd4 a0bf ca2a 2a3f fe86 f43f
000003a0: feff 2440 78b2 0f40 ace2 b13e 5bd8 383f
000003b0: ff67 c03f 2c0d 653f 23d3 f03e cd1f 283f
000003c0: 7644 b2c0 86bc 083f b5c8 363f a6c6 fbbe
000003d0: 9012 0f3e d7e0 4e40 63ed 3c3f 5227 6ebe
000003e0: f3cb 71be c95b 4d3d 2ca1 98c0 ba6f dcbd
000003f0: cfde 033e 9fe9 153f 5225 b0c0 9d75 a9be

net.1.bias f4 [64]
4.2583833 3.7470174 3.7648625 4.4081626 4.3768964 3.509862 0.08068899 3.4295003
-0.9442991 -0.98081464 -0.7430163 3.954688 -0.58749056 3.8732824 -0.9622125 4.1415157
3.3554552 -0.5657694 -1.7958813 4.325933 3.6474862 4.7825465 -0.9983064 -0.9443957
3.7888145 4.9194384 -0.95026284 -0.5463291 -0.86463296 -0.9660963 4.547325 3.5935245
-0.56595063 4.413147 -1.1502867 3.1342657 -1.0307984 -1.3184803 -0.9668459 4.1746855
-1.0589564 -0.9436661 4.225885 -1.3074977 -1.0185977 1.3446937 -1.2304753 4.751958
3.244118 3.8313427 4.824483 3.8122554 -0.7440094 4.296743 -0.9665161 -1.183971
-1.6596779 4.2299294 3.967251 -0.6737492 -0.8992654 4.7026234 -1.3235695 -0.5911011
00000000: ad44 8840 22cf 6f40 82f3 7040 ab0f 8d40
00000010: 890f 8c40 94a1 6040 4540 a53d ef7c 5b40
00000020: 96bd 71bf ab16 7bbf 5136 3ebf 9c19 7d40
00000030: c865 16bf dce3 7740 8f53 76bf 4c87 8440
00000040: c7bf 5640 43d6 10bf 70df e5bf 0b6e 8a40
00000050: 6a70 6940 9f0a 9940 0291 7fbf ebc3 71bf
00000060: f07b 7240 0a6c 9d40 6d44 73bf 39dc 0bbf
00000070: 9658 5dbf 1652 77bf b083 9140 4efc 6540
00000080: 24e2 10bf 8038 8d40 983c 93bf cf97 4840
00000090: 34f1 83bf f6c3 a8bf 3783 77bf 0697 8540
000000a0: e28b 87bf 1a94 71bf 733a 8740 165c a7bf
000000b0: 6961 82bf ec1e ac3f 3780 9dbf 0a10 9840
000000c0: a19f 4f40 b834 7540 2a62 9a40 fefb 7340
000000d0: 6677 3ebf eb7e 8940 996d 77bf 5d8c 97bf
000000e0: 5370 d4bf 955b 8740 71e7 7d40 d47a 2cbf
000000f0: 4236 66bf e47b 9640 ba6a a9bf 6752 17bf

net.3.weight f4 [64, 64]
1.9510739 -0.53710455 2.1309884 3.515627 1.3481977 1.2847618 -0.10633738 3.2852268
-1.9813765 -0.68709356 3.4342885 1.511912 -0.49494544 1.551613 -0.06823665 3.06573
1.6915697 -0.60983276 4.0444903 1.7294105 2.072632 2.5474646 -2.1162581 -3.5954926
1.7692719 2.2795596 -1.4701024 0.6993822 -1.2427589 -0.9347049 1.9880292 1.0389057
-1.4455074 2.4375038 -1.6780769 1.4713368 0.1230447 0.121266834 -1.0149583 2.6719797
0.5416059 -1.5286442 1.9846474 2.6725159 -0.64928305 1.1885452 -0.8083761 2.5986319
1.7412498 2.3189251 2.4961658 0.2039314 -0.23947029 5.1666574 -1.72468 0.42221487
-2.6842926 4.922779 2.3171873 -0.15295315 1.1379915 2.603349 -0.79527175 0.08262884
0.20233111 0.40305725 0.056236267 -1.8653718 -0.119624674 -2.963499 2.0592647 -0.47856757
3.9549098 2.1225624 4.923076 0.50441134 3.7793658 -1.2487317 3.1736999 -0.9668175
0.9610085 2.2965071 2.106973 0.6532233 0.51752275 0.63998026 2.6439981 3.0031397
0.7606386 -0.120012015 2.412071 4.503064 2.763852 2.3794835 -0.28637835 0.6906725
1.9465115 0.5597107 3.4192145 0.20848899 2.9493089 2.6211777 5.333288 -0.79795855
2.3036027 3.7350001 0.24162605 2.338515 2.3339624 3.1846552 4.021175 -0.014544756
0.42851183 -1.6895986 -0.48201972 0.2213992 3.2099814 -0.81295073 3.8705406 3.9974194
2.9040494 -2.6055071 -2.2665806 3.676025 3.8144033 -1.3509226 4.2978477 3.035106
1.8695636 -2.342602 0.8142465 -5.344071 1.4149216 -3.713649 5.021222 -0.7112793
6.006259 -1.3655242 -1.5007553 2.7364857 4.138548 -2.1976583 3.644089 -3.7886024
0.39646113 5.901669 -0.5411773 2.077471 1.1366041 1.449296 -1.9683099 3.2840626
1.2535424 0.4484833 3.3707125 4.458744 2.8642871 7.4287047 0.3764483 2.0994396
5.9543843 1.1314658 5.3070974 -1.4914875 0.41252795 2.6381543 2.7936387 -0.9199917
2.4129465 2.9220753 1.3002857 -2.3713572 1.5336761 1.2071512 6.6380625 0.26638255
-0.3642396 -4.919042 -0.7100262 4.083305 3.1209042 -5.7874155 2.2639325 1.6269419
5.990867 -2.3082314 -4.9096575 -1.5598873 6.784242 -1.4105923 2.7743979 2.4500155
-0.38878638 1.594192 -0.4678374 -2.142919 -0.5043579 4.9137845 -3.0988984 0.18875921
2.007078 1.1807034 3.622465 0.21343204 2.256271 1.4471464 -1.1013367 -0.8365825
0.06348399 0.33245993 1.7346474 0.16700536 0.23733206 1.1719319 -0.74943995 -2.9606204
-0.14843367 1.006284 -1.7408552 -2.9158247 1.1952419 0.66984427 1.2045738 -0.08955454
1.1030291 0.2670712 -0.86017996 0.4474661 -3.8989983 -3.0238643 -1.4109378 1.3797313
0.029767925 -3.1334229 -0.13668762 0.41283828 0.32532993 -4.211273 -0.73512036 0.32324082
1.2996743 4.6294203 -0.5197469 1.2879474 0.4995426 -0.6372502 -1.2594008 1.3502588
0.1831522 -1.5209444 1.8105271 -3.2131028 -1.6479142 1.0950651 -1.2051458 -0.6028696
00000000: cabc f93f af7f 09bf 1d62 0840 0800 6140
00000010: be91 ac3f 1373 a43f 6ac7 d9bd 2841 5240
00000020: bf9d fdbf 5de5 2fbf 62cb 5b40 5586 c13f
00000030: 7d69 fdbe 419b c63f a8bf 8bbd ec34 4440
00000040: 5b85 d83f 001e 1cbf 776c 8140 535d dd3f
00000050: 01a6 0440 a909 2340 c670 07c0 8d1c 66c0
00000060: 8077 e23f 4ee4 1140 512c bcbf b60a 333f
00000070: b912 9fbf d248 6fbf be77 fe3f ddfa 843f
00000080: 6306 b9bf 1000 1c40 39cb d6bf c454 bc3f
00000090: dcfe fb3d bf5a f83d 27ea 81bf b701 2b40
000000a0: afa6 0a3f 9daa c3bf ed08 fe3f 800a 2b40
000000b0: 6a37 26bf 4022 983f bcf1 4ebf fc4f 2640
000000c0: 46e1 de3f 4569 1440 2ec1 1f40 65d3 503e
000000d0: b337 75be 4255 a540 50c2 dcbf 8c2c d83e
000000e0: 73cb 2bc0 6887 9d40 cc4c 1440 c09f 1cbe
000000f0: b5a9 913f 459d 2640 ee96 4bbf 4f39 a93d
00000100: e32f 4f3e 855d ce3e 0058 663d 81c4 eebf
00000110: c8fd f4bd f8a9 3dc0 feca 0340 cf06 f5be
00000120: 3e1d 7d40 10d8 0740 d789 9d40 1a21 013f
00000130: 21e1 7140 71d6 9fbf e61d 4b40 5a81 77bf
00000140: a704 763f f9f9 1240 a5d8 0640 a439 273f
00000150: 5f7c 043f bfd5 233f 4437 2940 7133 4040
00000160: 36b9 423f dcc8 f5bd 5f5f 1a40 1a19 9040
00000170: f3e2 3040 7549 1840 2fa0 92be eacf 303f
00000180: 4a27 f93f 3349 0f3f 69d4 5a40 237e 553e
00000190: 7ac1 3c40 60c1 2740 4caa aa40 0347 4cbf
000001a0: 3a6e 1340 3e0a 6f40 d26c 773e 3baa 1540
000001b0: a45f 1540 64d1 4b40 77ad 8040 214d 6ebc
000001c0: e765 db3e c444 d8bf 4acb f6be 79b6 623e
000001d0: 5670 4d40 8a1d 50bf f0b6 7740 b8d5 7f40
000001e0: f2db 3940 a1c0 26c0 a80f 11c0 fe43 6b40
000001f0: 2f1f 7440 08eb acbf f887 8940 2d3f 4240
00000200: dc4d ef3f 31ed 15c0 7572 503f a102 abc0
00000210: 271c b53f 6dac 6dc0 daad a040 6616 36bf
00000220: 4633 c040 7fc9 aebf c018 c0bf 9522 2f40
00000230: fc6e 8440 6fa6 0cc0 c138 6940 7678 72c0
00000240: f4fc ca3e 79da bc40 988a 0abf 49f5 0440
00000250: 3e7c 913f 8882 b93f 94f1 fbbf 152e 5240
00000260: 1474 a03f 9a9f e53e c1b9 5740 08ae 8e40
00000270: 7b50 3740 f3b7 ed40 d5bd c03e 385d 0640
00000280: 518a be40 dfd3 903f bed3 a940 10e9 bebf
00000290: dd36 d33e 85d7 2840 faca 3240 9384 6bbf
000002a0: b76d 1a40 4803 3b40 c36f a63f 51c4 17c0
000002b0: 804f c43f ee83 9a3f 026b d440 4b63 883e
000002c0: 9d7d babe cb68 9dc0 47c4 35bf 6faa 8240
000002d0: e5bc 4740 8232 b9c0 45e4 1040 a23f d03f
000002e0: 2fb5 bf40 10ba 13c0 ea1b 9dc0 63aa c7bf
000002f0: 8318 d940 4a8e b4bf bc8f 3140 0ecd 1c40
00000300: 020f c7be 7c0e cc3f 6288 efbe 9625 09c0
00000310: 991d 01bf b93d 9d40 5a54 46c0 184a 413e
00000320: f773 0040 4a21 973f 77d6 6740 ee8d 5a3e
00000330: be66 1040 183c b93f 9af8 8cbf 452a 56bf
00000340: e503 823d 3038 aa3e ed08 de3f 7403 2b3e
00000350: 2d07 733e dd01 963f 4cdb 3fbf ce7a 3dc0
00000360: fffe 17be eacd 803f 58d4 debf df9c 3ac0
00000370: b0fd 983f ea7a 2b3f 792f 9a3f 5f68 b7bd
00000380: 0f30 8d3f 8ebd 883e c134 5cbf 471a e53e
00000390: 3089 79c0 fe86 41c0 9c99 b4bf 099b b03f
000003a0: dddb f33c 008a 48c0 d7f7 0bbe 8a5f d33e
000003b0: a591 a63e c0c2 86c0 d930 3cbf d27f a53e
000003c0: ba5b a63f 3624 9440 220e 05bf 76db a43f
000003d0: 0cc4 ff3e d422 23bf 0c34 a1bf 48d5 ac3f
000003e0: 408c 3b3e 4eae c2bf 5abf e73f 7aa3 4dc0
000003f0: daee d2bf 182b 8c3f 3842 9abf a955 1abf

net.3.bias f4 [64]
2.6555738 -0.63598996 -1.0089239 0.3019001 -0.30293325 -0.37145966 -0.57595694 -0.5672146
-0.9083813 -0.5759483 4.081637 4.2049494 3.5319917 -0.82704335 1.7778529 4.196211
3.580028 -0.9486853 4.1088696 4.706913 -0.7659475 -0.59993255 3.8715189 -0.11053577
2.3178854 -0.62434494 0.010713147 -0.34485137 -0.8359486 3.9055889 4.501793 -0.5084406
-0.8279223 4.470229 -0.9098163 3.974434 -0.1405145 4.014733 -0.60605174 -0.7094702
4.45588 3.7860708 4.185499 4.2391777 -0.55500984 -0.56320995 3.7641897 2.4867065
-0.9863925 -0.61062795 4.605046 4.694646 4.1459403 3.5990572 3.8764007 -0.7333503
4.072339 0.39745438 4.8385463 2.5612078 4.80235 -0.4227479 -0.050019428 -0.9061904
00000000: ecf4 2940 3dd0 22bf 6b24 81bf a692 9a3e
00000010: 111a 9bbe f62f bebe ea71 13bf fa34 11bf
00000020: ad8b 68bf 5971 13bf c59c 8240 f28e 8640
00000030: 270c 6240 1db9 53bf af90 e33f 5c47 8640
00000040: 2e1f 6540 0add 72bf dc7b 8340 089f 9640
00000050: 2315 44bf 2e95 19bf f7c6 7740 9460 e2bd
00000060: 3c58 1440 12d5 1fbf 3286 2f3c 5c90 b0be
00000070: ba00 56bf 2bf5 7940 b00e 9040 2a29 02bf
00000080: b7f2 53bf 1e0c 8f40 b9e9 68bf 205d 7e40
00000090: 08e3 0fbe b178 8040 3526 1bbf d79f 35bf
000000a0: 9296 8e40 fc4e 7240 9cef 8540 58a7 8740
000000b0: 2015 0ebf 872e 10bf 7ce8 7040 3326 1f40
000000c0: 3884 7cbf 1d52 1cbf 895c 9340 8a3a 9640
000000d0: 8bab 8440 f456 6640 f316 7840 d8bc 3bbf
000000e0: 9a50 8240 247f cb3e 5fd5 9a40 d4ea 2340
000000f0: daac 9940 6a72 d8be 2ce1 4cbd 18fc 67bf

net.5.weight f4 [9, 64]
0.56183064 -3.699103 -0.46214277 5.6523156 -2.7450182 -2.2181225 -4.069993 -4.4816523
-4.052467 -6.837511 3.1629257 3.085265 3.265597 -7.345199 0.3299236 3.105086
3.912041 -5.7127037 3.3229806 3.3955786 -3.8983831 -4.0817957 4.2222238 0.011509215
4.7422256 -5.5338655 0.046934206 -3.9178185 -7.307808 3.6226552 2.9144092 -4.8240633
-2.7171068 3.5324583 -2.5171866 4.9866257 -0.018349098 3.8527348 -7.069706 -3.5745928
3.1251197 3.0935218 3.256386 2.6879778 -7.8156786 -5.73184 4.067447 3.2815187
-5.3890276 -3.9604936 2.9016998 2.8874545 4.4532857 2.4685676 3.3092866 -7.1080112
1.782767 -4.8895288 3.5579703 0.73295134 3.1535604 -7.0003657 -0.08707447 -4.900457
2.2983408 -0.17611516 -0.9481947 0.4382333 -1.0626245 -1.789005 -1.6909922 -0.111756556
-2.4851358 -3.3815088 0.58432144 0.9762383 1.6480377 -0.5900748 -0.8838195 2.5525005
2.599519 -1.6553322 2.6117814 2.024568 -0.9625217 -1.8558879 1.5970438 -0.10164879
-0.13792014 -2.5333762 -0.09011836 -2.3848553 1.3743852 1.015687 2.363204 -3.2488663
-1.0167722 2.6712582 -1.8481545 1.7705301 -0.06588205 1.6119114 -0.083070755 -0.5782847
0.146867 1.6504763 2.0948758 2.720951 -0.70823574 -0.48572958 3.437211 4.640676
-0.6915182 -2.790507 1.5266948 1.6459476 1.1538222 2.5856383 2.4090517 -0.9002705
1.0615706 -0.019753182 2.0011117 3.010939 2.2460656 0.021293342 0.04424236 -0.9799689
2.2128413 -3.920516 -9.721909 2.4119866 -6.479441 -2.9140384 -4.041512 -4.3777447
-5.7364187 -2.3620095 2.2223988 2.5144293 1.1406801 -4.258221 -0.24579374 3.3477228
2.4392548 -7.046454 5.193679 2.8084314 -3.490903 -5.880727 2.9099367 -0.064293444
1.0360951 -2.6597705 0.088090405 -5.8443284 -6.5434437 3.6814942 2.440296 -4.0213327
-9.406332 3.207083 -4.5088873 3.551331 -0.041437246 2.7840247 -4.2572985 -8.58091
2.7748663 2.8543832 3.6742446 2.601525 -2.0269184 -2.9498496 4.297204 3.645023
-6.112521 -4.6910143 1.7167224 1.6111245 2.46218 2.9903712 2.73889 -1.891937
0.92720926 -4.9569783 2.266081 2.5108936 3.182423 -3.313559 0.06847377 -5.242608
0.09284928 -7.236862 -8.268206 -0.39845845 0.15693521 1.886025 -0.28075287 -6.242598
-8.817647 -5.2490954 1.0681387 0.5030696 0.17543234 -3.6940813 -0.7372502 1.7014784
0.5015618 -4.8839736 3.1423554 1.3160615 -8.316726 -9.272111 1.6007011 0.113385975
-0.02493786 -6.3658996 -0.008520109 -6.9883823 -2.401679 2.4617298 1.8523529 -1.0281312
-9.292607 1.5225729 -7.444318 1.8126063 0.07310574 1.7948129 -1.0883557 -5.082079
2.4079309 1.6905106 1.4344816 1.9635013 -3.6355112 -1.5722209 1.2427148 1.777863
-5.002054 -4.2536936 1.5639665 1.3806329 5.5105042 2.2285767 1.4624997 -0.18279451
0.27603355 -2.1720047 1.4220277 0.49172276 2.0369186 0.34446836 0.0506623 -7.938729
00000000: 22d4 0f3f 1bbe 6cc0 fa9d ecbe c5df b440
00000010: 61ae 2fc0 b8f5 0dc0 623d 82c0 b269 8fc0
00000020: cfad 81c0 e4cc dac0 606d 4a40 fb74 4540
00000030: 8bff 5040 df0b ebc0 bfeb a83e bbb9 4640
00000040: e15e 7a40 78ce b6c0 b7ab 5440 2951 5940
00000050: 1c7f 79c0 129e 82c0 751c 8740 2691 3c3c
00000060: 50c0 9740 6d15 b1c0 153e 403d 8abd 7ac0
00000070: 90d9 e9c0 95d9 6740 ae85 3a40 ba5e 9ac0
00000080: 14e5 2dc0 cc13 6240 9619 21c0 7092 9f40
00000090: d950 96bc 3593 7640 083b e2c0 21c6 64c0
000000a0: f601 4840 43fc 4540 a168 5040 d407 2c40
000000b0: 0a1a fac0 3c6b b7c0 8728 8240 6704 5240
000000c0: ea72 acc0 ba78 7dc0 73b5 3940 0ecc 3840
000000d0: 5181 8e40 03fd 1d40 5acb 5340 d474 e3c0
000000e0: b631 e43f 0577 9cc0 c9b5 6340 b3a2 3b3f
000000f0: efd3 4940 ff02 e0c0 1a54 b2bd 8bd0 9cc0
00000100: 0418 1340 8857 34be e3bc 72bf 1d60 e03e
00000110: 1404 88bf 1efe e4bf 6f72 d8bf 9fe0 e4bd
00000120: 770c 1fc0 a46a 58c0 1796 153f c1ea 793f
00000130: e6f2 d23f 240f 17bf ff41 62bf 2b5c 2340
00000140: 855e 2640 ede1 d3bf 6d27 2740 8692 0140
00000150: d267 76bf bc8d edbf ee6b cc3f 3e2d d0bd
00000160: f03a 0dbe d622 22c0 fa8f b8bd 78a1 18c0
00000170: dbeb af3f 0802 823f bc3e 1740 6ded 4fc0
00000180: 9725 82bf e5f5 2a40 5490 ecbf bba0 e23f
00000190: 2bed 86bd 1d53 ce3f 0021 aabd 770a 14bf
000001a0: 4e64 163e cf42 d33f 7212 0640 1024 2e40
000001b0: f04e 35bf 8cb1 f8be 44fb 5b40 6b80 9440
000001c0: 5607 31bf ab97 32c0 bc6a c33f 69ae d23f
000001d0: 72b0 933f 197b 2540 e72d 1a40 2178 66bf
000001e0: 8ce1 873f 6dd1 a1bc 3712 0040 39b3 4040
000001f0: 8abf 0f40 606f ae3c 7a37 353d 3edf 7abf
00000200: 319f 0d40 bce9 7ac0 f08c 1bc1 fd5d 1a40
00000210: 9557 cfc0 9b7f 3ac0 1154 81c0 7c16 8cc0
00000220: be90 b7c0 2a2b 17c0 c83b 0e40 69ec 2040
00000230: ce01 923f 5943 88c0 5bb1 7bbe 1741 5640
00000240: c01c 1c40 8d7c e1c0 9e32 a640 57bd 3340
00000250: f46a 5fc0 ea2e bcc0 673c 3a40 48ac 83bd
00000260: c49e 843f ae39 2ac0 be68 b43d bd04 bbc0
00000270: e463 d1c0 9a9d 6b40 cf2d 1c40 c2ae 80c0
00000280: 5680 16c1 d940 4d40 ce48 90c0 0249 6340
00000290: 1aba 29bd 762d 3240 ca3b 88c0 684b 09c1
000002a0: 6997 3140 37ae 3640 d326 6b40 637f 2640
000002b0: 08b9 01c0 56ca 3cc0 b282 8940 0f48 6940
000002c0: c699 c3c0 ca1c 96c0 8fbd db3f 5439 ce3f
000002d0: 5b94 1d40 3e62 3f40 f949 2f40 fe2a f2bf
000002e0: 965d 6d3f 919f 9ec0 7907 1140 7bb2 2040
000002f0: d2ac 4b40 5a11 54c0 fa3b 8c3d 72c3 a7c0
00000300: c327 be3d 6094 e7c0 924a 04c1 bf02 ccbe
00000310: a0b3 203e 4469 f13f d7be 8fbe 5dc3 c7c0
00000320: 1515 0dc1 97f8 a7c0 c5b8 883f 2bc9 003f
00000330: 89a4 333e d46b 6cc0 6ebc 3cbf 0bca d93f
00000340: 5b66 003f 8349 9cc0 5a1c 4940 b474 a83f
00000350: 4f11 05c1 915a 14c1 c6e3 cc3f e836 e83d
00000360: 7c4a ccbc 73b5 cbc0 ed97 0bbc d4a0 dfc0
00000370: 1cb5 19c0 fb8c 1d40 e619 ed3f ce99 83bf
00000380: 85ae 14c1 abe3 c23f da37 eec0 7c03 e83f
00000390: 76b8 953d 6ebc e53f 3d4f 8bbf 64a0 a2c0
000003a0: 8a1b 1a40 a762 d83f 189d b73f 0354 fb3f
000003b0: 37ac 68c0 893e c9bf 4711 9f3f 0491 e33f
000003c0: d410 a0c0 421e 88c0 0e30 c83f 94b8 b03f
000003d0: 0d56 b040 00a1 0e40 3133 bb3f 7c2e 3bbe
000003e0: 4554 8d3e 2002 0bc0 0105 b63f 16c3 fb3e
000003f0: e05c 0240 285e b03e 4683 4f3d 110a fec0

net.5.bias f4 [9]
2.382231 1.5003853 1.4747711 2.0770063 4.410484 3.2067308 1.4363859 0.9442124
1.3267194
00000000: 7976 1840 a00c c03f 4dc5 bc3f aced 0440
00000010: af22 8d40 143b 4d40 7edb b73f e7b7 713f
00000020: f1d1 a93f
