projects/reinforcement_learning/deep_q_learning/tictactoe/trained_models/player_1_dqn.pth (torch, 24657 bytes, 6 tensors)

net.1.weight f4 [64, 9]
000000 25 4b a1 3f ba 01 43 3e f7 63 db be b9 2b 3f be
       1.2601057 0.19043627 -0.42849705 -0.18669023
000010 91 f3 76 3e e1 d8 0a bf 99 4b 20 3f 5f 36 68 3f
       0.2411635 -0.5423718 0.6261535 0.90707964
000020 5b b6 d9 bf 3d 3f 08 40 e4 23 7a bf fa 12 3f bf
       -1.7008775 2.1288598 -0.97711015 -0.7463833
000030 d3 43 19 3f 2d 92 9e be c4 99 4f 3e 8b 7a 17 3e
       0.59869117 -0.30970898 0.202735 0.1479284
000040 4a df 19 bf ed 3c 6d 3d 34 c2 be 3f 92 ec 44 3f
       -0.6010634 0.05791943 1.4903016 0.7692348
000050 d9 1b 08 bf 16 e8 e1 bf 8f da 9d 3e 6a 4b 95 bd
       -0.5316749 -1.7648952 0.3083081 -0.07289775
000060 53 5c 09 3f 43 f1 00 bd f0 b5 91 be 9d b2 9a bd
       0.536565 -0.031480085 -0.2845912 -0.07553599
000070 6b 6e 0f 3f aa 3e 3a be 6b c0 fa be 5e 89 43 bf
       0.5602786 -0.18187967 -0.48974928 -0.7638148
000080 f5 48 3c be ed 40 92 3e 81 9c 44 3f 86 8c 3e 3e
       -0.18387206 0.2856516 0.76801306 0.18608293
000090 df 44 cd be e3 e1 fe 3e 6e c2 16 3f 30 a2 c3 bf
       -0.40091607 0.49781713 0.58890426 -1.5283871
0000a0 b4 84 c6 be fa 05 a5 3f ad 4d 4a 3d 29 e9 04 bf
       -0.3877312 1.2892449 0.049390484 -0.51918274
0000b0 03 56 ff 3e 92 11 89 bf f9 9e 7d bf 15 a0 54 bf
       0.4987031 -1.0708487 -0.990707 -0.83056766
0000c0 8b 5f 83 3f 77 d8 cd 3d 5d 89 ac 3e 08 be 61 3f
       1.0263532 0.10051053 0.3369855 0.8818059
0000d0 c7 5b 41 bf 2a b5 59 3f f7 05 53 bf ea b7 9d bd
       -0.75530666 0.8504206 -0.82430977 -0.077010944
0000e0 d6 07 b1 bf ac c3 83 be e5 14 6a 3f d8 a2 36 3f
       -1.3830516 -0.25735223 0.9143813 0.7134223
0000f0 c7 d8 c1 3e 1c cc 85 bd ab 9f 83 3e aa 4e 5b bf
       0.378607 -0.065330714 0.25707754 -0.85666907
000100 26 7a d0 be 6c 2f 27 bf 68 d6 1e 3f e1 67 1c 3e
       -0.40718192 -0.65306735 0.6204591 0.15274002
000110 ec eb 95 bd b7 61 1e 3f d6 43 96 3f 12 5c 5d 3f
       -0.07320389 0.6186785 1.1739452 0.86468613
000120 cd 44 55 bb 16 21 cf 3e 7e b8 06 bf 01 b5 8a 3e
       -0.003254223 0.4045493 -0.5262526 0.2709122
000130 6a 24 0a 3c 48 3e 1e bf a9 d0 0c 3f 3f 29 63 3e
       0.008431533 -0.61813784 0.5500589 0.22183703
000140 ae 29 40 bf 2c a7 31 3f 96 b6 06 bd b9 cb 3c 3f
       -0.750636 0.6939571 -0.03288897 0.73748356
000150 4c 4a 0c 3f 52 e6 51 bf ae 89 6c 3e 8d 22 02 bf
       0.5480087 -0.81992066 0.23099396 -0.5083397
000160 d5 fb 87 bf 9e 0c 28 3f 0e d2 bd be 15 fd 7d 3e
       -1.0623728 0.6564425 -0.37074322 0.24803574
000170 89 fa 32 bf ad d6 94 3f 68 dd 13 3e c0 d6 9d be
       -0.69913536 1.1628014 0.14439929 -0.30827904
000180 96 32 a8 bf a8 62 98 be 47 48 8b 3f b1 6d 3d bf
       -1.3140438 -0.2976277 1.0881432 -0.739955
000190 94 2b 2c 3f f3 e5 8b 3d 83 34 df bd dc 8f 96 3d
       0.67253995 0.06830969 -0.10898688 0.07351658
0001a0 3d af e6 be e1 67 1a 3f 0d 09 a0 bf 3d db 4d 3f
       -0.4505557 0.60314757 -1.2502762 0.80412656
0001b0 c5 6a 5a be 31 7f d9 be 66 df d1 bf 85 be 36 3f
       -0.21329792 -0.42479852 -1.6396301 0.7138446
0001c0 cf af 32 3f 7a 38 25 3f 7c 09 9d 3f 66 64 24 bf
       0.6979951 0.645393 1.2268519 -0.64215696
0001d0 9e 29 19 bf ca af b5 3d b7 28 28 bf 52 c9 03 bf
       -0.5982913 0.0887142 -0.65687126 -0.51479065
0001e0 d8 1a 23 bf 5c 15 55 be 6b ce 4b bf 7f 13 5f 3f
       -0.63712835 -0.20808929 -0.79611844 0.87139124
0001f0 59 e4 a2 3f d4 99 9e 3f 4b 11 2c 40 68 ba 17 3e
       1.2725936 1.2390695 2.6885555 0.14817202
000200 3a fd 82 bf 73 c7 2c bf 5d 15 80 be 75 f9 72 3d
       -1.0233529 -0.67491835 -0.250163 0.059319932
000210 85 60 99 bd 2a 27 86 bd 34 b3 c8 3d a2 7e bf 3e
       -0.07489113 -0.06550439 0.09799805 0.374013
000220 ac 20 45 3f a2 30 0c bf 1a c1 b1 bf a4 bb ce be
       0.7700298 -0.5476171 -1.3887055 -0.40377533
000230 86 72 26 bf 73 0e e6 3c 0e b1 cf 3f 4b 0d 6e be
       -0.650185 0.028083062 1.6225908 -0.23247258
000240 1c 65 76 bf 04 be 65 3f c0 92 87 3f b7 73 2c 3f
       -0.9624803 0.89743066 1.059166 0.67364067
000250 97 70 6f 3f 6f 0e 81 bf e5 9e ac 3e 9c 83 15 bf
       0.93531173 -1.008253 0.33714977 -0.58403945
000260 14 93 d8 bd e6 2f 44 bf c4 30 27 3e 8e fe 41 bf
       -0.10574928 -0.7663559 0.16327196 -0.75779045
000270 bd 08 46 3f 0f f1 7c 3f f0 6d 45 bf 24 21 92 be
       0.77357084 0.98805326 -0.77120876 -0.2854091
000280 e2 44 f1 3f b5 28 a8 bd aa 77 04 bf ee f8 31 3a
       1.8849146 -0.08210889 -0.5174509 0.00067891076
000290 7a f0 a1 3f 4c 8b 6a 3f 27 20 44 bf 63 08 97 3f
       1.2651513 0.916188 -0.7661156 1.1799434
0002a0 ab e9 0a 3f da 64 11 bf cd 8b 5b be 69 8c 85 be
       0.542628 -0.5679451 -0.21440049 -0.26083687
0002b0 f4 72 38 3e ca 0f c0 bf ff be b3 bf bb 0f 07 40
       0.18012601 -1.5004818 -1.4042662 2.110335
0002c0 66 17 f2 be 40 6a 39 be 08 76 a6 bf bd 36 4e 3f
       -0.47283477 -0.18106937 -1.300477 0.80552274
0002d0 ba 0f ce be 3f cb 87 bf bf a0 8d 3f 41 be 30 bf
       -0.40246373 -1.0608901 1.1064681 -0.69040304
0002e0 16 f2 bd 3e d8 41 b7 3e 24 fd 82 3d 5c a3 b8 bf
       0.3709876 0.35792422 0.06395939 -1.4424853
0002f0 1a 20 32 3f 7f 53 d8 3e 90 95 24 bf 32 6b 65 3e
       0.69580233 0.42251202 -0.64290714 0.22404173
000300 f5 f9 4e bd b2 b3 56 bf 32 b9 0c bd 35 f5 1d 3f
       -0.050531346 -0.83867943 -0.034356304 0.6170228
000310 6d 8f c5 3d e1 1a 13 3f 67 f4 24 be 0a 09 a6 3e
       0.09646497 0.5746289 -0.16108857 0.3242877
000320 04 e1 ec be ce 5c 3e bf cb 00 8a be db eb 86 bf
       -0.46265423 -0.7436036 -0.2695373 -1.0540727
000330 93 bd 0b 3f 43 00 c2 bf b9 b4 ea 3f 75 db 2b 3e
       0.5458614 -1.515633 1.8336402 0.16782935
000340 5c 73 ee 3e a7 89 e8 be b8 8a 39 3e ac a7 84 bf
       0.46572387 -0.4541752 0.18119323 -1.0363669
000350 8d df 58 bd 40 b0 8d 3e a5 e6 49 3f e8 67 0e 3f
       -0.05294757 0.2767353 0.7886756 0.556273
000360 9b df cf 3e b3 f7 3b bf 35 05 12 3e d3 6f 71 3e
       0.40600285 -0.73424834 0.14259799 0.23577814
000370 b9 b6 08 bf 2c 67 46 3e 53 ad 00 3f 51 c0 0d be
       -0.5340381 0.19375294 0.5026447 -0.13842894
000380 bd a4 20 3e ff 70 33 bf 43 37 8b 3f f5 c1 cd 3f
       0.15687843 -0.70094293 1.087624 1.6074816
000390 64 af 68 bf fd 15 1f 3d 15 58 fc 3d 91 af f6 be
       -0.90892625 0.03883933 0.12321488 -0.48180822
0003a0 81 2c 6a bf 59 4a f0 bd 28 85 e9 be 4f 89 e7 3e
       -0.9147416 -0.11732931 -0.45609403 0.45221946
0003b0 89 e1 be bf 88 d3 88 bf 4d dc 8f 3f 61 e8 89 be
       -1.4912578 -1.0689554 1.1239105 -0.26935104
0003c0 f5 be 1a 3f af a5 74 3f 82 30 fa be 0b 18 72 bf
       0.6044763 0.95565313 -0.48865134 -0.94567937
0003d0 64 fa 94 3d 50 bb a6 3f eb cc ca bf e7 34 e6 3e
       0.07274321 1.3025913 -1.5843786 0.44962236
0003e0 f8 1a 78 bf 42 2b ab 3f 5e a6 a7 be ee 53 fb be
       -0.9691615 1.3372576 -0.32744116 -0.4908747
0003f0 26 8b 39 bf 52 ff b0 be 9a 8e 5d bf 60 b1 38 40
       -0.7247795 -0.34569794 -0.8654572 2.885826

net.1.bias f4 [64]
000000 b4 ac 2e bf a2 16 c8 bc de 5a c5 be ed a2 85 3f
       -0.68232274 -0.024424855 -0.3854589 1.0440346
000010 08 ce 34 bf 66 19 f1 3e d7 98 f4 3e d0 5a 12 3f
       -0.7062688 0.4708969 0.47772858 0.5716982
000020 db 8e 8b 3f 4d f3 92 ba 29 a1 a5 bc 63 37 75 3f
       1.0902971 -0.0011211425 -0.020218449 0.9578764
000030 45 98 82 bc 8c 04 e1 be c9 72 ed be ba 08 ba 3d
       -0.015941748 -0.43948781 -0.46376637 0.09083696
000040 1d 85 59 bf 3a 09 f4 3d 9b 36 cb be 95 40 c3 be
       -0.8496874 0.11915822 -0.39690098 -0.3813521
000050 2a ac 3a bf 78 fa 92 3f 34 49 87 be 93 7c a9 be
       -0.7291895 1.1482687 -0.26423037 -0.33102855
000060 20 31 9e 3f d0 9c 73 3e 3b 37 6e be 97 5e be 3e
       1.2358742 0.23790288 -0.23263256 0.3718154
000070 40 02 17 bf c1 87 15 bf 4c 8f 7b be af 19 e5 be
       -0.5898781 -0.5841027 -0.24566382 -0.44746158
000080 d5 92 60 bf ff d4 86 3f 88 f6 3b be 25 47 16 be
       -0.8772405 1.0533751 -0.18355763 -0.14675577
000090 6e 35 4f bf 9f 2b c6 3c 09 cc aa 3f 3f 04 a1 3f
       -0.809409 0.024190722 1.3343517 1.2579421
0000a0 d2 ff e6 be 5b 4f 1e bf 38 72 bb 3f f2 e9 16 bf
       -0.4511705 -0.61839837 1.4644232 -0.5895072
0000b0 72 90 06 bf 38 95 26 bf 4a 9d 3d bf 47 71 2e 3e
       -0.52564156 -0.6507144 -0.7406813 0.170354
0000c0 73 12 aa bf 4b ff 11 3f 71 aa 69 bc 25 6c b9 3e
       -1.328688 0.5703017 -0.014261828 0.3621532
0000d0 9d 53 ae bd d1 07 8c 3f 28 86 c6 3f 80 9b 08 3f
       -0.08512042 1.0939885 1.5509691 0.53362274
0000e0 a1 ce 4c bf 01 c0 9e 3f 38 a5 a5 bc 04 25 c5 3f
       -0.8000279 1.2402345 -0.020220384 1.5401921
0000f0 55 f8 32 3f a6 fc 26 bf 24 6a 1b 3e e5 30 c1 3e
       0.69910175 -0.6522926 0.15177208 0.37732616

net.3.weight f4 [64, 64]
000000 68 60 ae 3f b2 e1 53 bf 70 2a 0a 3f 10 fc 39 3e
       1.3623171 -0.8276626 0.53971004 0.1816256
000010 af 1b 03 3e 17 56 9f 3e 5a e9 03 be ed bd 8d 3c
       0.12803529 0.3112037 -0.12881985 0.017302478
000020 44 53 4f 3e 16 ae 8e bf 3a dc 86 bd 8a 99 79 be
       0.20246607 -1.1146877 -0.06584974 -0.24374977
000030 d0 b9 4f 3f a3 9d 9a 3f 86 7d 87 be ee fc ba 3e
       0.811429 1.2079357 -0.26462954 0.36521095
000040 3e 6d 41 bf c6 f0 ec 3e ec 3d 11 bf 4a 0b 43 3e
       -0.75557315 0.46277446 -0.5673511 0.19047275
000050 6a a6 91 bf 61 62 21 bf c4 6f 23 3c 1e 64 18 3f
       -1.137891 -0.6304074 0.0099753775 0.59527767
000060 0d d3 47 bf 31 cf 3b 3e d7 2f 1f 3f ca 16 74 bf
       -0.7805641 0.18340756 0.6218237 -0.95347273
000070 34 c0 50 3e 9f 31 26 3f 0d 2d ab bf 3c c5 c4 3d
       0.2038582 0.64919466 -1.3373123 0.09607932
000080 26 4c 7e 3f 73 b9 39 3f 59 3e 84 3f 98 d4 58 3e
       0.99334943 0.725486 1.0331527 0.21174848
000090 83 7e 2e 3f 02 5c 57 3f 0c 89 d9 be 56 5b 5b 3e
       0.6816179 0.8412477 -0.4248737 0.2142156
0000a0 82 9c c3 3f 8e 88 1a 3f 6a 78 14 be 73 8e 5b 3c
       1.5282137 0.60364616 -0.1449906 0.013400662
0000b0 3e d2 a6 3f 2a 3d 62 3e c6 b5 88 bf ca 63 9f 3e
       1.3032911 0.22093645 -1.0680473 0.3113082
0000c0 22 6c 20 bf 67 29 43 3f bb 41 6f be ff 4c 64 3e
       -0.62665 0.7623505 -0.23364918 0.22294997
0000d0 ee fd f4 3e fc b1 88 3e 55 ca 04 3e 3b 40 97 be
       0.47849983 0.2669829 0.12967809 -0.2954119
0000e0 1d f9 10 3f 0d 1f 38 be c4 09 4b 3f 85 83 19 bf
       0.56630117 -0.17980595 0.79311776 -0.5996631
0000f0 b5 73 87 be fd 26 df bd 41 78 e0 3e 22 f6 01 3f
       -0.26455465 -0.10896108 0.43841746 0.50766194
000100 69 c7 39 3e 8e db 00 3f fb a7 86 3f 28 89 26 be
       0.18142475 0.50335014 1.0520014 -0.16263258
000110 ad 07 8b 3f 6b 52 62 bf 62 83 01 c0 ae 7f d6 bf
       1.0861717 -0.8840701 -2.023644 -1.6757715
000120 31 1b e4 be 0a a7 f0 3d d5 f1 ca bf fc 97 6d bd
       -0.44551995 0.1175061 -1.5855051 -0.05800627
000130 92 73 ae bf 97 1d 8a 3e ed 5f e4 3f 89 ef 29 3f
       -1.3629019 0.269757 1.7841774 0.66381127
000140 8a bb db 3f 63 07 15 3e 05 c3 8f bd 8c e3 aa be
       1.7166607 0.14553599 -0.07019619 -0.3337673
000150 28 a5 4d 3f 37 38 f6 3d 8d 95 05 3f e9 f1 62 3d
       0.80330133 0.12022441 0.5218132 0.055406485
000160 72 a1 20 be 45 7f 80 3f 10 33 93 bf 2e e6 34 3f
       -0.15686586 1.003884 -1.1499958 0.70663726
000170 e0 39 9c 3f 44 49 9a bf d8 c5 c7 b9 53 da 9e 3f
       1.2205162 -1.2053609 -0.00038103643 1.2410377
000180 b8 6d be 3d 26 d6 10 3d 8b 5d 33 3f 28 39 af be
       0.09298271 0.035360478 0.7006461 -0.34223294
000190 af 3d 22 3f 19 55 b8 bf aa 3a 37 bf e6 d8 99 3e
       0.6337537 -1.440097 -0.7157389 0.30048293
0001a0 30 09 2d 3f 0e 51 94 be 8e 60 23 bf 6c ff d9 3e
       0.67592144 -0.2896809 -0.63819206 0.42577684
0001b0 ae 9d 73 bf 26 ea 63 3f dd 10 83 3f ab fe 96 be
       -0.95162475 0.8902916 1.0239521 -0.2949117
0001c0 98 9e 54 bf cc ae 76 3e 5c b3 22 3e af d6 b4 be
       -0.83054495 0.24090117 0.15888733 -0.3532004
0001d0 df 3a f2 3e e7 55 c4 be 44 d9 23 bf d4 32 ba 3e
       0.4731054 -0.38346788 -0.64003396 0.36366904
0001e0 70 c0 85 3f 41 5e 46 be 1a 74 ce 3e fe a0 f1 3d
       1.0449352 -0.19371893 0.40322953 0.11798285
0001f0 58 04 6e 3e 22 0a 9b bf 51 fd 8b 3f 61 f5 cf bc
       0.23243845 -1.2112467 1.0936681 -0.02538556
000200 2a bd 8f bf 24 e2 9f be 3c 9c b6 bd f0 2a 45 bf
       -1.1229603 -0.3122722 -0.08916518 -0.7701864
000210 f6 a5 43 3f f6 1c 9d 3f 03 30 4e 3e 4d 76 25 be
       0.7642511 1.2274463 0.20135503 -0.1615841
000220 4a e1 26 be 6f b2 90 3e af a5 03 3f 74 8f 8f 3e
       -0.16296878 0.28261134 0.5142469 0.28039134
000230 8a 02 7d 3f 93 a1 8e bf 91 26 29 bc de 15 3c be
       0.98832 -1.1143059 -0.010324136 -0.18367717
000240 b0 b1 3c 3f 17 6e 46 be cd ef 7b 3e 00 af 7d 3e
       0.7370863 -0.19377933 0.24603195 0.24773788
000250 8b 07 a8 3f d2 46 0a be cd 96 12 3f 9e 1c 9b bf
       1.3127302 -0.13503578 0.57261354 -1.2118108
000260 fc 3d 00 bf 5c 3e 82 3e ea 6e 10 bf 56 cf 45 3f
       -0.5009458 0.254382 -0.5641924 0.77269495
000270 82 fe ed 3f 6f 8d 75 be 93 fc e1 3d ea e6 84 3f
       1.8593295 -0.23979734 0.11034503 1.0382969
000280 9c ba 6e 3f 22 1f 5d bb b2 d0 3b 3d 9f 2f ba 3e
       0.93253493 -0.003374048 0.045853324 0.36364457
000290 9e 1a 88 3f ec c5 c5 be 55 34 71 bf a1 be a1 bf
       1.0633123 -0.38627565 -0.9422048 -1.26363
0002a0 a7 a0 75 3e 31 6f 35 3f 30 ac f6 be eb 87 87 3e
       0.23987065 0.7087279 -0.48178244 0.26470885
0002b0 f6 db cc 3e f3 c8 d3 be 67 53 13 3e d1 4c bb bf
       0.40011567 -0.4136425 0.14387284 -1.4632818
0002c0 25 41 ef bd 4d 75 89 bd 88 8e 7d 3d 80 8e f1 3e
       -0.11682347 -0.067118265 0.061903507 0.4717903
0002d0 a2 2f 14 be b9 5b b3 be 32 f2 af be 5a f9 03 bf
       -0.14471295 -0.35030916 -0.34364468 -0.51552355
0002e0 56 06 a7 3f ab ea 47 bf 42 44 06 3f 05 7e 27 bd
       1.3048809 -0.7809245 0.52447903 -0.040891666
0002f0 55 26 dd 3e 93 dc 3a bd 11 23 9e 3e 03 af 91 be
       0.43193308 -0.045620512 0.3088613 -0.28453836
000300 dc a8 36 3f 5a fc 77 3f 45 8c 99 3f e1 9f 6c bd
       0.7135141 0.9686943 1.1995932 -0.05776966
000310 a5 4b 96 3f e1 a2 85 3d de 37 44 bf ef bc f4 be
       1.1741835 0.06525207 -0.76647747 -0.47800395
000320 77 04 74 bd d8 fa a1 bc 48 6f fa 3e 5e 47 eb 3d
       -0.05957457 -0.019772932 0.48913026 0.114882216
000330 24 e2 3d 3e 11 09 68 3f f7 8f 97 3f cb 64 5e 3f
       0.18543297 0.90638834 1.184081 0.8687255
000340 9b 4e 35 3f ff 42 51 3f 2d de fe be 63 35 ea 3e
       0.7082307 0.8174285 -0.49778882 0.45743856
000350 1f a9 90 3e 67 57 72 bd 30 3f 48 3f 90 63 b0 3e
       0.2825403 -0.059165385 0.78221416 0.3445096
000360 1b ce 10 bf 3b 43 32 3e 20 c5 09 be 69 86 1f 3f
       -0.5656449 0.17408459 -0.13454103 0.6231447
000370 fb bc 9a 3f b2 72 15 3f 13 f7 b2 bf 63 40 2d bf
       1.2088922 0.58378136 -1.3981651 -0.6767637
000380 47 8c 94 bf 1b d2 47 bf 9c 21 91 3f 28 3c 46 3e
       -1.1605309 -0.7805497 1.1338382 0.19358885
000390 94 bd 32 3f a1 8e 8f 3e 2e 96 4c bf 98 fc cc bd
       0.69820523 0.28038505 -0.79916656 -0.10009116
0003a0 b8 16 f9 3f 1e f6 c7 bf ee 2f 32 bf a6 df c1 3f
       1.9460058 -1.5621984 -0.69604385 1.5146377
0003b0 39 c4 e4 3e 5b 44 fc 3e d4 18 08 bb e1 e6 3e 3e
       0.44680956 0.492709 -0.0020766752 0.18642761
0003c0 1e 70 30 3f df 52 26 3f cf ee 07 3f 23 f1 d4 3d
       0.6892108 0.649702 0.5309877 0.10397556
0003d0 ff 73 1e 3f df de ae 3c 0c a7 88 bd fc 46 b2 bf
       0.61895746 0.021346508 -0.06672487 -1.3927913
0003e0 5f 58 17 3f 29 8e 67 bf cd f7 b3 3e 10 0a 3b be
       0.5911922 -0.90451294 0.35149994 -0.18265557
0003f0 ff 57 26 c0 75 df 86 3f f8 fe cc bf 86 0d ed be
       -2.5991209 1.0536944 -1.601531 -0.4629938

net.3.bias f4 [64]
000000 fa e3 70 be 3c 32 c3 be 51 47 1c bf 91 a3 2a bf
       -0.23524466 -0.38124263 -0.6104632 -0.6665583
000010 63 7d 8c 3f b1 1c 08 3d de 42 b8 3c b1 9c 63 3f
       1.0975765 0.033230487 0.022492822 0.8891097
000020 f8 8c 7e 3e 0e 89 0e be 66 46 bc bd 64 c4 74 3f
       0.24858463 -0.1391947 -0.09193115 0.9561217
000030 b1 28 63 bf c7 a0 a7 3f 1a fb ae be 5e 25 a1 3f
       -0.88733965 1.309594 -0.3417595 1.2589529
000040 85 e2 5e 3f 29 db 0d 3f 9e ed d0 3e f3 1f 47 3f
       0.8706439 0.55412537 0.40806288 0.77783126
000050 8d b6 95 3e 36 de 08 bf f9 1b 97 3f 2d 8a 26 be
       0.29240838 -0.53464067 1.1805412 -0.16263647
000060 b2 0f 14 3f d3 84 9b 3f 97 e6 84 3f 04 4c e3 bd
       0.5783645 1.214991 1.038287 -0.11098483
000070 18 d0 be 3e 62 85 f0 be 69 77 58 3f f0 d5 b2 3e
       0.37268138 -0.46976763 0.84557205 0.34928846
000080 9c e7 08 3f c5 f9 82 3f c8 1e 7e 3f 1b b0 0e bf
       0.5347841 1.0232474 0.9926572 -0.55737466
000090 22 f9 84 be 03 68 9a be 54 66 47 3f e8 88 54 bd
       -0.25971323 -0.3015748 0.77890515 -0.051888376
0000a0 13 da 45 bf 74 c2 81 3f 5e d0 24 3f 0d 5c 75 3f
       -0.7728588 1.0137467 0.64380443 0.95843583
0000b0 05 3f 07 3f 19 6c 61 3f ac 11 03 3f 95 ad 22 3f
       0.52830535 0.8805557 0.5119884 0.63546115
0000c0 a7 82 4c 3f f3 a1 0d 3e 17 12 bd bb bf b5 4a 3f
       0.7988686 0.1383131 -0.0057699787 0.7918357
0000d0 bb 67 1a 3f a7 f2 07 bf e1 8e 45 3e 3f eb 0a 3f
       0.6031453 -0.53104633 0.19292785 0.5426521
0000e0 51 64 50 bf bd 2e 01 bf fa d1 44 3e 80 f8 2e 3f
       -0.8140307 -0.5046194 0.19220725 0.6834793
0000f0 2e 9a f9 3e 68 ff 14 bf c6 93 6f bd ea 94 0e bf
       0.48750442 -0.5820222 -0.058490537 -0.55695975

net.5.weight f4 [9, 64]
000000 06 84 3c be 4f 16 e4 bf 79 6a ba be 2f 4c fa be
       -0.18409738 -1.7819308 -0.36409357 -0.48886248
000010 80 8c 63 3e 16 1e f7 be 65 7d ac 3e e2 1c 88 be
       0.22221565 -0.4826514 0.33689418 -0.26584536
000020 b8 26 97 bd 15 45 9a 3f c8 b9 29 3f d6 78 f4 3e
       -0.07380432 1.2052332 0.66299105 0.4774844
000030 94 2c bb bd 7d d8 17 3f 54 b6 56 bd 23 06 c8 3e
       -0.09139362 0.5931471 -0.052419975 0.39067182
000040 9b 37 2d 3f a0 aa 36 3f 38 48 96 3a 97 1d 57 3e
       0.6766297 0.71354103 0.0011465615 0.21007381
000050 92 5e 9f bf fa b1 f1 bd bb 76 57 3f e8 03 2e bf
       -1.2450736 -0.118015245 0.84165543 -0.6797471
000060 10 f2 a3 be 84 52 3b 3f cc e4 2c 3e c4 7a 6b bf
       -0.32020617 0.73172784 0.16884154 -0.919842
000070 82 8a dd 3e d5 89 53 bf 37 7b 01 be a7 31 93 bf
       0.43269736 -0.8263219 -0.12644659 -1.1499528
000080 42 f8 1c be d5 89 3e 3f 86 b3 9a 3d 71 af 72 bf
       -0.15329078 0.74429065 0.07553773 -0.9479895
000090 e8 81 4e bf d7 1e b8 bf 6a d7 86 3f e8 84 47 be
       -0.8066697 -1.4384412 1.0534489 -0.19484293
0000a0 d5 cf 64 be 5b b2 14 3d ea 5a 7d 3d f8 6d 10 3f
       -0.22344907 0.036302906 0.06185428 0.564178
0000b0 51 3c 8c 3f 36 a5 5f 3e 3a 4d 69 3f 58 64 30 3f
       1.0955907 0.21840367 0.91133463 0.6890311
0000c0 69 1f a0 3f 9c 09 d0 3f 05 0a 56 bf bf bc 5f be
       1.2509586 1.6252933 -0.8360904 -0.21849345
0000d0 90 9f 14 3f 47 d2 26 bf f6 83 ba 3e b2 9e 21 be
       0.58055973 -0.6516461 0.36428803 -0.15783194
0000e0 fa 40 8a bf d0 50 b7 bf 8e 7d 05 bf ca 02 3e 3f
       -1.0801079 -1.4321537 -0.52144706 0.74223006
0000f0 89 d9 41 3d 7b 4c 88 bd 8d ff 1c 3e f6 cb b4 bf
       0.0473266 -0.066552125 0.1533186 -1.4124744
000100 37 cb dc be e1 77 2a c0 06 5f a3 be 15 33 b7 bf
       -0.4312379 -2.6635668 -0.31908435 -1.4312464
000110 1a e6 ed 3e 2d cc 94 3f fc e3 76 bf bf 4c 56 3f
       0.46464616 1.162481 -0.96441627 0.83710855
000120 db 49 02 3f c9 58 fe be 72 8b 36 3f d2 63 8d bc
       0.50893945 -0.49677113 0.71306527 -0.017259512
000130 bb d3 19 c0 fa 6e 6f 3f 5d 56 b1 bf 1c 1b 7c 3f
       -2.403548 0.9352871 -1.3854481 0.98478866
000140 fe 9a 4e 3f 70 01 24 3f 0d 18 14 3f 46 d0 8c 3f
       0.8070525 0.64064693 0.578492 1.100106
000150 d0 7b d9 3f e3 ef 4d bf 6a 83 70 3f c3 0b 13 bf
       1.699091 -0.80444163 0.9395052 -0.5743982
000160 45 1f f0 3e 8e 76 63 3f da 48 a9 3f ca 8c 53 bf
       0.46898857 0.88852775 1.3225358 -0.826367
000170 b7 1d 41 3f 9c 4f 76 be 8f f0 94 3f 80 51 39 3f
       0.75435966 -0.24053806 1.1635913 0.72389984
000180 9e 88 9f 3f cb a7 16 3f fb 5e 31 3f e3 5a ca bf
       1.2463567 0.5884978 0.69285554 -1.5808986
000190 de b5 69 bf 7c 3e 69 bf 57 92 46 3f 21 c5 a5 3e
       -0.9129313 -0.9111097 0.77567047 0.3237696
0001a0 d6 f1 1c be e7 60 5b 3f 24 71 ee 3e 7c 9b f7 3e
       -0.15326628 0.85694736 0.46570694 0.48360813
0001b0 44 ee 28 3f 6d 47 80 3f ee 4a bc bd df 4e 29 be
       0.65988564 1.0021797 -0.09193979 -0.16533993
0001c0 19 05 11 3f 56 48 0d 40 a9 11 e0 bf a4 e6 88 3e
       0.56648403 2.20754 -1.750539 0.26738465
0001d0 70 cf 49 3f 8a ef b4 bd c7 f6 2f 3f 07 58 88 3f
       0.7883215 -0.08834751 0.6873593 1.0651864
0001e0 ae 8d e6 be 8c ae d9 bf ce b2 43 3f 74 16 36 3f
       -0.45029968 -1.7006392 0.7644471 0.7112801
0001f0 c7 fd af 3f 13 b8 ca bf 42 17 d4 3f fc e9 ae bf
       1.3749322 -1.5837425 1.6569598 -1.3665156
000200 b1 a9 8f be b9 d7 d3 bf fe ee b5 bf 5b a0 7f bf
       -0.28059152 -1.6550208 -1.421356 -0.9985406
000210 f9 ee f3 3e b2 a5 84 3e b2 6b 80 be 7d 6a d7 3d
       0.4764326 0.25907665 -0.25082165 0.10518358
000220 3f 5f 3b 3f 32 43 10 bf c4 2f 6d 3e 70 a9 75 3f
       0.7319221 -0.5635253 0.23162752 0.95961666
000230 12 ce c2 3f 6d 1b 5a 3f c9 f0 0a c0 ec 3c 1a 3f
       1.5219138 0.851981 -2.1709464 0.6024921
000240 e5 bd 61 3f 09 4f 65 3f 35 e9 32 3f 1f 55 10 3e
       0.8818038 0.89573723 0.69887096 0.14094971
000250 d8 e5 b4 bf 39 12 15 bf 36 04 97 3e 74 3b d7 bd
       -1.4132643 -0.5823093 0.294954 -0.10509387
000260 e7 e2 c2 3e 58 d0 48 3f c1 ed ea 3e 86 c4 96 be
       0.38063738 0.7844291 0.45884517 -0.2944681
000270 3e db 44 bf ba f0 bb bf 45 1d 61 3f 6b f0 1c bf
       -0.7689704 -1.4682839 0.87935287 -0.6130435
000280 22 a0 6c 3f 15 18 14 3f 71 44 87 3e 5a 96 b3 bf
       0.92431843 0.57849246 0.26419404 -1.4030259
000290 06 7d 91 bf 37 ef 48 bc 46 88 b1 3e bc 46 67 bf
       -1.1366279 -0.0122640645 0.3467428 -0.9034231
0002a0 00 53 f8 bf 39 c2 e7 3e ab 86 b8 3e 71 ed 89 3e
       -1.940033 0.45265368 0.36040244 0.26938966
0002b0 f0 a7 a8 3f 22 de 8a 3e 4f a7 b4 3e 8a 5d c7 3e
       1.317625 0.271226 0.35283896 0.38938552
0002c0 11 bb bd 3e 01 2a 1a bf d7 66 60 be 3d a8 ed 3d
       0.37056783 -0.6022034 -0.2191423 0.116043545
0002d0 f4 1a c3 3e e3 15 71 bf 75 db 4b 3e 72 25 1a bd
       0.381065 -0.9417402 0.19907935 -0.037633367
0002e0 22 46 f5 bf cd 34 93 bf bc f2 5e 3f 95 0d df 3e
       -1.9162028 -1.1500489 0.87089133 0.4356505
0002f0 6d 56 19 3d a1 1c c6 bf af 17 a2 3f 4b 12 b1 be
       0.037435938 -1.5477487 1.2663478 -0.3458427
000300 a5 3d 14 3f 0a a4 8e bf d0 4d 8f bf 71 1f df be
       0.5790656 -1.1143811 -1.1195621 -0.43578675
000310 be 8e f9 3e 01 cc a3 bf 5c 1b 20 be 4f c7 e1 be
       0.48741716 -1.2796632 -0.15635437 -0.44097373
000320 38 70 09 be a2 df 30 be 65 59 3f 3e 9c b4 77 3f
       -0.13421714 -0.17272809 0.18686445 0.96759963
000330 9f 22 2a bf ad e3 de 3e 38 64 95 bf 93 16 df 3e
       -0.6645908 0.43533078 -1.1671209 0.4357191
000340 6e 3a 37 3f 9b 03 21 bd 0d 35 ac 3d 12 84 a7 be
       0.7157353 -0.03931008 0.08408556 -0.3271795
000350 9e 79 5d 3f ae 4e 55 bf 64 9a 29 3e 44 ac 42 40
       0.865137 -0.8332318 0.16562802 3.0417643
000360 ca f4 9f 3d b1 c2 09 3f 09 64 32 be 78 28 93 3e
       0.07810362 0.538127 -0.17420973 0.28741813
000370 32 1b 73 be 1f 64 55 bf 75 33 16 be 34 39 f2 be
       -0.23740843 -0.833559 -0.14668067 -0.47309268
000380 90 fc 95 be e7 ae 1e 3f 89 4d 4f 3e 83 ba 0a bf
       -0.29294252 0.6198563 0.20244421 -0.54190844
000390 9e 40 cd bf aa d2 4d 3e 58 76 46 3f 6a be 25 3d
       -1.6035345 0.20099893 0.7752433 0.040464796
0003a0 79 72 bc bf b6 27 1d 3f fb 27 95 3f fa 96 6c 3f
       -1.4722434 0.6138872 1.1652826 0.9241787
0003b0 1d ee ad 3e 7f 2d 1f 3f ae 1a b1 3e 5b 7a 3b 3f
       0.3397073 0.62178797 0.34590667 0.73233575
0003c0 00 85 19 3e 9d 6c 48 bf 92 dc 02 bf 12 0d 25 bd
       0.14992142 -0.7829073 -0.51117814 -0.040295668
0003d0 d0 8e bf 3e 61 3d 5b bf 56 7a 97 3f b8 e9 3c be
       0.37413645 -0.8564053 1.1834209 -0.18448532
0003e0 df dd 4e bf c3 29 a8 bf be ca 6b 3f 44 04 94 3f
       -0.808073 -1.3137745 0.92106235 1.1563802
0003f0 e4 df 8f 3d ec eb 96 bf 95 43 7c 3f 55 21 40 bf
       0.070251256 -1.1790748 0.9854062 -0.7505086

net.5.bias f4 [9]
000000 ac c8 d2 3e 71 06 31 3f 1f 70 fb 3e 2d 14 96 3e
       0.41168725 0.69150454 0.4910898 0.29312268
000010 eb ad 13 3f 9e bb d9 3e 23 61 35 3f a5 02 65 3f
       0.5768725 0.42525953 0.70851344 0.8945716
000020 4b 60 ee 3e
       0.4655784
